simplenet9667.pth (torch, 285463 bytes, 6 tensors)

weight f4 [84, 784]
00000000: c9b9 563c 7baf 06bd be47 863b 2784 4a3c
00000010: df91 e5b9 3637 45bb b7bb 033d 5e97 83bc
00000020: c4a9 a4bb fd8a 03bc 03c4 c6bc 232f 1cbd
00000030: 60fb 34bc 0218 f9bc b284 273b 80a6 3a3c
00000040: ccec e23c 3dd4 1ebd 98d2 84ba 6ac3 7c3c
00000050: f890 f7bc dbab fdbb 6cee e13b d4fd e0bc
00000060: 8769 903b 75de 4bbc 1bff 1cbc f1a3 b73c
00000070: f702 453b 7d87 46bc b86b 0ebc 327c 6f3c
00000080: 2880 14bd 95fe e5bc e61a aebc af62 57bc
00000090: 3993 643c f844 cfbc 5501 febc 95c2 77bc
000000a0: 6bea ab3c 371b b93c 510e f8bb 16d2 79bc
000000b0: 0cca 00bd 1f41 21bb 1588 06bd 0ae6 e3bc
000000c0: 1bb9 eabc d39f 7e3c f0fb 08bd 3b89 b7bc
000000d0: 987d ed3c 782e cebc 3e22 59bb 80d5 bbbc
000000e0: 6433 d13a e474 9abc 4887 11bd c200 f43c
000000f0: fa13 c43b 40f9 c3bc db83 793c 3337 b13c
00000100: 561b 8ebc aeeb ba3c 49fd bc3c fe6b 473b
00000110: 1243 25bd 681e 26bd a35e ce3c c0f2 913c
00000120: 1f78 07bd 571a bfbc 5a38 4ebc b952 aabc
00000130: b440 a53b 9369 30bd 9dc8 3dbd 73a0 10bb
00000140: 42ca 673c 4796 dcbc 08be afba ad92 debb
00000150: 74ca f33c 8c2b d8bc 92e1 a6bc dff1 9d3c
00000160: 4b99 0b3d 9c12 393c ba1b 2cbb 10ca f0bc
00000170: 6fe8 223d b491 42bb 8cb5 153d dc01 5c3d
00000180: 8c43 043e bb89 d13d 6676 413d d74f debb
00000190: aed7 6cbd ab34 86bd cdef 8e3b e7de 62bd
000001a0: 8991 82bd 7aa8 9cbc 3f77 8bbd 1c79 cb3b
000001b0: 310b ffbc 6585 95bc ac1c 0abd a0f7 bfbc
000001c0: cc02 593c f02d e63c 2048 453c 59ac a4bc
000001d0: 50fb d1bb 6a9d 4b3c c739 1a3b 266c 973d
000001e0: 2c2c b13d 8ff5 103e dcb7 343e ea21 f03d
000001f0: 8531 473e e6cf e13d ccc4 cc3d 81b2 253c
00000200: 17ef ec3c e372 aa3c 4210 313d bb71 4dbd
00000210: 3ffa abbd 8ce2 afbd af7f 95bc c6a7 87bd
00000220: 8fc9 abbc a895 863c b95e b53c 802f 9d3c
00000230: b780 97bb 9101 6c3b ca24 c03c 637c acbb
00000240: 276c 3d3d f32c 2d3d 02c1 e43d d064 bb3d
00000250: 339a 1e3e 921a 453e b155 453e 306b 383e
00000260: 2df1 003e 7d52 f53d 44eb 983d 445c cc3d
00000270: e365 063e f310 e9bc ddb9 82bc a223 f5bc
00000280: 3dce 16bd b202 9fbd 8a49 eebd 8cf3 0abd
00000290: 47d4 0ebd 502d b53a 284b b2bb 9c71 27bc
000002a0: 228d d8bc b02f bcbc bf6c 03bc ecbc 82bc
000002b0: a08c f33c 0ed8 b23d 7453 f33d 30f1 f33d
000002c0: b695 243e c528 213e 79af 523e 859f 473e
000002d0: 703f 473e 53a1 043e 2857 b53d a4ad 0fbd
000002e0: 055c aa3d 8ab3 bdbd c5ee 12be 79a8 0dbe
000002f0: 4702 9ebd 63fe 60bd 8a43 cbbd 82e5 31bd
00000300: 4a2e 24bd 4eb5 2a3d 7fee 213c faa8 a0bb
00000310: c453 19bc 35f7 e0bc 13a9 d1bc a535 1c3c
00000320: f774 ca3d d590 d93d 6855 183e f32a a83c
00000330: e9b3 e2bb 8603 e43d 31e2 0d3e ade4 7a3c
00000340: 8008 c53d 5211 1a3d e571 573d 76e7 92bd
00000350: 05fb 00be 5113 b5bd a7ae 54be 1e9b 09be
00000360: fb3e e2bd 0179 edbd 9a86 96bd 0de2 99bd
00000370: b109 4cbc 2f1f 3cbc 87b8 69bc 4c5c 19bd
00000380: 1172 4ebc fa1b a4ba 922d e9bc cc90 7d3d
00000390: 66b1 053e 75f4 573d 2569 883d 27bb 623d
000003a0: c6c2 69bd e86d 163d eb56 743d e14e edbd
000003b0: 6cea 03bd 1174 75bd b469 b43d cd77 b23c
000003c0: aac6 463d 9ce3 44bc 5373 12be 0c19 e1bd
000003d0: 1ca4 2abe 99fa d2bd 8b53 dbb9 3d3e 61bd
000003e0: 8221 19bc 7ab7 32bc bc32 e23b ba50 6abc
000003f0: a928 92bb 04e4 e8bc ba33 383d 5c1c 0e3d
0.013105818 -0.032882195 0.004097908 0.012360609 -0.00043786966 -0.0030092723 0.03216144 -0.016063388
-0.0050251205 -0.008028743 -0.024263388 -0.03813089 -0.011046261 -0.030406956 0.002556127 0.011392236
0.027700804 -0.038776625 -0.0010133563 0.01542745 -0.030220494 -0.007741434 0.006894877 -0.027464785
0.004407111 -0.012443175 -0.009582306 0.02241704 0.0030061582 -0.012117264 -0.008692674 0.014617013
-0.03625503 -0.028075496 -0.02125306 -0.013146087 0.013951116 -0.025301442 -0.031006495 -0.015122076
0.020985803 0.022595985 -0.007570066 -0.015247842 -0.031442687 -0.0024605466 -0.03284462 -0.027819652
-0.028652718 0.015541035 -0.03344339 -0.022404304 0.028990552 -0.025168642 -0.0033131982 -0.022928953
0.001596075 -0.018854566 -0.035529405 0.029785518 0.0059838267 -0.023922563 0.015229191 0.021632766
-0.01734702 0.022817459 0.023069995 0.0030429359 -0.040347166 -0.04055634 0.02519161 0.017815948
-0.03307354 -0.02332799 -0.012586677 -0.020791398 0.0050431136 -0.043069433 -0.046333898 -0.0022068291
0.014147343 -0.026927127 -0.0013408074 -0.0067923875 0.029759623 -0.026387952 -0.020371232 0.019280372
0.03408174 0.011295941 -0.0026261644 -0.029393226 0.039772447 -0.0029688897 0.03655009 0.05371271
0.12916392 0.10231348 0.047232054 -0.00678442 -0.057822876 -0.06553014 0.0043620826 -0.055388357
-0.06375415 -0.019123305 -0.06809854 0.0062095057 -0.031133266 -0.018252084 -0.03371875 -0.023433506
0.013245296 0.028098077 0.012041122 -0.020101713 -0.0064081326 0.012427667 0.0023532973 0.073936746
0.08651003 0.14156173 0.17648262 0.117252186 0.19452484 0.110259816 0.099984735 0.010113359
0.0289226 0.020806735 0.043228395 -0.05015729 -0.0839734 -0.08588132 -0.01824936 -0.06623797
-0.020970134 0.016428784 0.022139894 0.019187689 -0.0046234983 0.0036011676 0.023455042 -0.0052638515
0.04624572 0.042279195 0.11169626 0.09150088 0.1548851 0.19248417 0.1927097 0.18009639
0.12592001 0.11978624 0.07466748 0.09978536 0.13124804 -0.028450465 -0.015957767 -0.029924218
-0.036817778 -0.07764186 -0.1163512 -0.03392367 -0.034870412 0.0013822708 -0.005441088 -0.010219958
-0.026434485 -0.022971958 -0.008021533 -0.015959226 0.029730141 0.087326154 0.11881152 0.11911237
0.16072735 0.15738209 0.2057475 0.19494446 0.19457793 0.12952165 0.08854514 -0.035077706
0.083183326 -0.0926276 -0.14348896 -0.13833798 -0.07715278 -0.054930102 -0.099249914 -0.043431766
-0.040083207 0.041676812 0.009883522 -0.004902956 -0.00935835 -0.027461627 -0.025593316 0.009534274
0.098855905 0.10623328 0.1487633 0.020528292 -0.0069184196 0.111334845 0.13855816 0.01531331
0.09620762 0.037614174 0.052598853 -0.07173054 -0.12595756 -0.08841575 -0.2076975 -0.13438079
-0.11047169 -0.11595345 -0.07349892 -0.07513819 -0.0124534825 -0.011482044 -0.014265186 -0.037441537
-0.012600438 -0.0012520545 -0.028464112 0.061905667 0.13055953 0.052723367 0.0666068 0.055354264
-0.057070516 0.03672591 0.059653204 -0.115873106 -0.032205984 -0.059925143 0.08809224 0.021785641
0.048529305 -0.012017157 -0.14301805 -0.109911054 -0.16664165 -0.10301704 -0.0004183318 -0.054990996
-0.009346368 -0.010908002 0.0069030207 -0.014301473 -0.0044604135 -0.028429039 0.044971205 0.034695014

bias f4 [84]
00000000: 59d1 60bc 4dde f43c 884b 893c 533d 3dbb
00000010: 37a3 0b3c 067d 2f3c 1dc1 963b e938 79bc
00000020: 38a1 bebc a110 0c3c 979c 9d3b 3839 ed3c
00000030: c7c9 ab3c 7cec 65bc 437a 453b 35b7 ee3c
00000040: d4b6 01bd 760c f6bc 7c64 e9bc 0916 d7bc
00000050: b5cf ba3b 3f6a 33bc efc9 febb 43dd 493c
00000060: ec0e 1bbc 7481 803c 3548 c53c 9b59 ebbc
00000070: 9b0e 60bb ad55 76bc 808a 2abd a2e9 943c
00000080: 2de7 c8bc b3eb 383b 68d8 2dbd d8d1 0abd
00000090: 264c bfbc 1af3 673c d545 18bb 5c56 b13c
000000a0: 4c3b 343c a14c ddbc 773e d53c cd7b 0bbd
000000b0: bcd0 1cbd 7699 ab3b 6beb f0bc 8d23 873c
000000c0: 76e0 c9bb c251 cf3c 700f 1e3b c0c4 46b6
000000d0: db34 afbb a5d7 3f3d 6aa4 af39 ea20 353d
000000e0: 8c34 27bd 16bc c1bc f951 09bd ba92 8dbc
000000f0: a228 02bc 1e5a 0fbd 7e7a 18bd 326a ecbc
00000100: de07 00bd b08c ff3c a908 68bc d381 a63c
00000110: bdd8 86bc 5994 4f3c 6dca b0bc 395e 1fbc
00000120: 0ba7 0bbd c5bf e0bc 6cf1 f8bb 770e 213c
00000130: acbc 04bb 7b29 89bc 28bc 013d 316a 15bd
00000140: d0f2 bbbc ce86 813c 4639 1d3b aa3d d8bb
-0.013721787 0.029891158 0.016759649 -0.0028875663 0.0085228 0.01071096 0.0046006576 -0.015211322
-0.023270234 0.0085488865 0.0048099267 0.028957948 0.020970238 -0.014033433 0.0030132688 0.029140094
-0.0316685 -0.030035239 -0.028490297 -0.026255624 0.00570103 -0.010950624 -0.007775537 0.012320819
-0.009464007 0.015686728 0.024082283 -0.02872925 -0.0034188393 -0.015035075 -0.04163599 0.018177811
-0.024524296 0.002821666 -0.04244271 -0.03389153 -0.02335174 0.014157081 -0.0023234983 0.021647625
0.011000466 -0.027014079 0.026030762 -0.034053613 -0.038285002 0.0052368 -0.029409131 0.016496444
-0.006160791 0.02530754 0.0024118088 -2.9618823e-06 -0.005346877 0.046836514 0.000335011 0.044220842
-0.040821597 -0.023649257 -0.03352544 -0.017281879 -0.007944258 -0.03499805 -0.037226193 -0.028859232
-0.031257503 0.031195015 -0.014162221 0.020325577 -0.01646077 0.012669646 -0.0215809 -0.009727054
-0.03409485 -0.027435193 -0.007597139 0.009830109 -0.0020254059 -0.016743412 0.03167358 -0.036478225
-0.02294293 0.01581135 0.0023990436 -0.006599148

weight f4 [50, 84]
00000000: f29d e83d 91a9 833e 12e7 6a38 7f7b ae3d
00000010: 79f2 7bbd caf1 8ebc 1e04 093c b18b 71bd
00000020: 991d f7bd 2cbf 1d3d ea96 78bd d1db 9bbd
00000030: 4bfd aa3d 4489 8b3d ab6e f83c 2137 2d3c
00000040: 1ebd 643d 4fa1 dc3d 647d 063e c1a0 17bd
00000050: 64d0 e2bc 2f63 91bd f976 383e ca42 3bbd
00000060: 9d3e 9c3c 30b0 033d 445b 7abd 45d4 ce3d
00000070: c795 89bd 92fb 653e c9b1 983d 04f7 5c3d
00000080: 3511 33be 1389 563e be8f 92bd b68c 6bbd
00000090: f174 093d 36b5 de3d aa2b 953e e8d3 aebb
000000a0: b007 0a3e ac4a 933d 3141 d63d 8bca b2bd
000000b0: 1ca7 f63d e59f cabc 6707 dd3b 9d92 403d
000000c0: e762 ff3d 273f cb3d a42a a9bc e158 ba3d
000000d0: 781a a33d 79e5 b73d 7100 00be 33f4 15bc
000000e0: e37c acbd 845f ce3d 3046 f5bc 7a19 82bd
000000f0: 1528 debc 30c3 c9bd 19d0 d4bc e974 de3d
00000100: 11b9 a23c 4a52 e13d be0e 5ebe 8c86 89bd
00000110: 7212 353e f4b7 6e3d 89c3 66bc bd4b 0dbe
00000120: 603a f13d cc07 75bd 0400 54bc f158 ea3d
00000130: 4a83 2f3e ce2f 93bc 6058 c0bc 93dc 50bd
00000140: db11 a83d d122 1abe c5e9 08be 8d6a 6d3c
00000150: fe93 8abd 0d43 cabd e536 bbbd 564d 293d
00000160: 4841 d1bd 6473 bcbd 124f 3dbd 4caf ce3c
00000170: 95c3 203c 6ca5 d3bd 0899 3dbd 54d9 18bd
00000180: f811 923d 1dae 9c3d 1667 0e3d 54af 953d
00000190: d215 92bc 06cb 903c b845 93bd 0347 353c
000001a0: 8049 8e3b 58e3 6a3c 7677 10bc 5b23 a5bd
000001b0: 6a7d 09be a709 a1bb a073 b8bd 63d0 823c
000001c0: e4c8 923c a715 1b3d 3a1b 16bd 9fc6 0cbd
000001d0: b83e 04be acef c4bd f5a5 ae3d e97d 503b
000001e0: d407 cabc e489 dcbd ef72 d0bd 7823 9b3d
000001f0: 32e3 f6bd 9e81 3dbd 9fed 293d 78de 703d
00000200: bcf0 ac3b 3ca6 08bc 4e0c 1fbd e03b 363c
00000210: a311 263d 44be 1bbd d146 92bc 6053 56bd
00000220: c8ce e4bd 2db7 c0bd 58c5 27bd 7313 6abc
00000230: e594 b2bd ddfc acbd 008a 95bd 7281 a8bd
00000240: 18df 423c 621a a7bd 4e56 a8bd 656a ef3c
00000250: b3ad a83d b3e5 8abd 07a2 a6bc 59d5 cf3d
00000260: 63a5 43bd 537f 6cbd 4335 15be de19 5c3d
00000270: c433 593c 7447 d43d f8b3 92bc f18d 95bd
00000280: 8480 413d 6bcf 583d dac7 303c cfac ba3d
00000290: 0427 443d 5d1f 11bd 47f9 dfbd 08a5 923d
000002a0: a577 a2be 8649 47be fc61 b03d 4fec 873c
000002b0: 2217 743d ab2f 6bba cc19 183e f4fc 493e
000002c0: 898f 043e 4856 30bc 3e84 123e d48b 1fbd
000002d0: 27ea 9f3d 99fc 233d 08a1 76be bb6b b0bd
000002e0: 7281 333c 0caf 9fbd a079 a13d 64cc da3c
000002f0: df30 1a3d 1b67 963d d400 f93d 0b81 e93b
00000300: f52c 993e d8a7 2ebd 5625 57bd 959e 99bd
00000310: 05a0 8bbd 4b57 1dbc 36f0 0c3d ef56 23be
00000320: 916a f6bc ce0d 64bd d49c e03c 98fb 96bd
00000330: a8ef 213c 1afe e4bc c5a8 14be 5daf 1f3c
00000340: 1c8b 36be fc02 6a3d e551 8c3d 0ead 153d
00000350: 740b 433e eec8 cbbd 784c b0bd c7ec c63d
00000360: 5c94 3d3d a7d3 c0bd d79c f5bd ed22 c73d
00000370: 4927 be3d 7a8e 8d3d 5aae 443e 4154 0a3e
00000380: 7481 3dbd 7c5a a83c 27a7 bd3b 46eb 6abe
00000390: 46ee 023e d9bf 493d 69f9 bfbd 3e0f af3b
000003a0: 4128 2ebd a9e1 c33d 51db d93d 3ed0 d3bd
000003b0: 6177 823d 4d26 3cbd df86 a1bd d367 e8bd
000003c0: ed30 483d 000e 66bb 5a68 bebc eef7 f63c
000003d0: 498b 28be e1d2 9fbd cdd6 eabc aa44 aabd
000003e0: 4889 a5bd 3b8a b63d a668 e63d b555 fbbd
000003f0: c9a5 06bd 4dea 743d cd36 b83c 3575 463e
0.11358251 0.25715306 5.600515e-05 0.08519649 -0.061510537 -0.017449278 0.008362798 -0.05897111
-0.12066192 0.038512394 -0.060690798 -0.07610286 0.08349093 0.06813291 0.030326208 0.010572226
0.05584442 0.10772955 0.1313377 -0.03701854 -0.027687259 -0.07098996 0.18014134 -0.045717992
0.019072825 0.032150447 -0.061122194 0.10099081 -0.06718021 0.22459248 0.07455785 0.05394651
-0.17487033 0.20950727 -0.07156323 -0.05750724 0.03355879 0.10874407 0.29134876 -0.00533532
0.13479495 0.07191977 0.10461653 -0.08730038 0.12043592 -0.024734447 0.006745267 0.04701482
0.12470036 0.09924155 -0.020650215 0.090989836 0.07964033 0.08979315 -0.12500168 -0.00915246
-0.08422258 0.10076812 -0.029940695 -0.063525155 -0.027118722 -0.09851682 -0.025978135 0.108621426
0.019863637 0.110020235 -0.21685311 -0.06715116 0.17682818 0.0582809 -0.014084705 -0.13798423
0.11778712 -0.05982189 -0.012939457 0.114427455 0.17139927 -0.017967131 -0.02347964 -0.050991606
0.08206531 -0.15052344 -0.13370426 0.014490736 -0.067665085 -0.0987607 -0.0914133 0.04133352
-0.102175295 -0.092016965 -0.046217985 0.025230072 0.009812255 -0.10334286 -0.04628852 -0.037316635
0.071323335 0.07650397 0.03476628 0.07308832 -0.01783267 0.017674934 -0.07191032 0.011064294
0.004342258 0.01433643 -0.008817544 -0.08063384 -0.13426748 -0.0049144807 -0.09006429 0.015968507
0.017918058 0.037862446 -0.03664706 -0.034369107 -0.1291455 -0.09616026 0.085277475 0.003181333
-0.024661936 -0.10768488 -0.10178172 0.075751245 -0.12055053 -0.04626619 0.04148638 0.058805913
0.005277721 -0.008340415 -0.038830094 0.011122674 0.040544163 -0.03802325 -0.017856034 -0.052325606
-0.11172253 -0.09409938 -0.040959686 -0.014286864 -0.08719806 -0.08446667 -0.07301712 -0.08227815
0.01189401 -0.08159329 -0.08219586 0.029225538 0.082362555 -0.06782093 -0.020340933 0.10148115
-0.047765147 -0.057738613 -0.14571099 0.053735606 0.013256971 0.10365191 -0.017908081 -0.07302464
0.047241703 0.052932184 0.010789836 0.09114992 0.04788877 -0.0354303 -0.10936218 0.071603835
-0.31731907 -0.1946164 0.08612439 0.016592173 0.059592374 -0.00089716417 0.1485359 0.197254
0.1294538 -0.010762759 0.14308259 -0.03895171 0.07808333 0.040035818 -0.24084866 -0.08614298
0.010956155 -0.077970594 0.07884526 0.02670879 0.037644263 0.073438846 0.12158361 0.007125979
0.29917112 -0.042640537 -0.05252584 -0.0750095 -0.06817631 -0.009603332 0.03440877 -0.15951131
-0.030080112 -0.055677228 0.027418531 -0.073722064 0.009883799 -0.027953196 -0.14517505 0.0097464
-0.17826504 0.057131752 0.06851558 0.03654199 0.19047338 -0.09950434 -0.08608335 0.097131304
0.046284065 -0.094153695 -0.119928055 0.097234584 0.09284837 0.06911941 0.19207135 0.13508703
-0.046266034 0.020550959 0.0057877484 -0.22941312 0.12786207 0.049255226 -0.09373743 0.005342393
-0.042518858 0.09564526 0.106375344 -0.103424534 0.06370426 -0.045934964 -0.07887053 -0.11347928
0.048874784 -0.003510356 -0.023243118 0.030147519 -0.16459383 -0.07803894 -0.028666878 -0.08313878
-0.08082825 0.08913084 0.11250429 -0.12272207 -0.03287295 0.05979376 0.022487069 0.19380648

bias f4 [50]
00000000: f005 15bd 2056 18bd 11b7 bdbd 20da 013d
00000010: 50e0 b7bd fcd0 5e3d 19c3 363a dffc efbd
00000020: 0865 d03c ace1 b23d 790d adbd 6278 9dbc
00000030: a5ea 4bbd 4b0c 85bd b158 b9bc a3dd ce3d
00000040: 6008 21bd ebbf 823d dcd6 11be 377a f83c
00000050: c5ff 413d 4f8c a1bc 731a 98bd 5a0a 4fbc
00000060: 5825 de3d 0506 91bd 584e 23bd 912f 0b3b
00000070: 9a3a 85bd 46e8 03bd 68e0 bfb9 d6b5 933d
00000080: 3a66 62bd 0b4e 0d3d eb73 c6bd d878 0d3e
00000090: 2690 413d 2c0e 83bd 1b42 f33c 83b0 23bd
000000a0: eca5 663d b1a5 84bc 7a3f b83d ab78 9bbc
000000b0: e827 bdb9 413b 89bd c3f2 db3c be74 35bd
000000c0: 8660 233d dc32 0d3e
-0.036382616 -0.03719151 -0.09263433 0.03170216 -0.08978331 0.05439852 0.0006971821 -0.11718153
0.0254388 0.0873445 -0.08449835 -0.019222442 -0.04978432 -0.06496485 -0.0226253 0.101008676
-0.039314628 0.06384262 -0.14242119 0.030331714 0.04736306 -0.019720225 -0.0742692 -0.012636745
0.108469665 -0.07081226 -0.039869636 0.0021238069 -0.06505318 -0.032203935 -0.00036597555 0.07212417
-0.055273272 0.034498256 -0.09690078 0.1381563 0.04725661 -0.063991874 0.029694607 -0.039963257
0.05631058 -0.01619229 0.08996482 -0.018978437 -0.00036078622 -0.06700755 0.026849156 -0.044300787
0.039886974 0.13788933

weight f4 [10, 50]
00000000: 94f3 0abe b469 14be 7a38 f03d a03b 593e
00000010: 8c44 a9ba 4b2c aa3c 16ba b73d 4225 08be
00000020: 98af 65be c779 163e 75e0 03be 8be2 4fbe
00000030: 3f79 9bbe f1aa ffbd 0edb aebe e479 58be
00000040: d6bd 92be 14a5 11be 706c 663e 28c1 2b3c
00000050: b130 e93d 42c9 42be f58c 703b ce19 02be
00000060: 7027 c2bd f99b 783c 104e a4bd 2b55 3cbe
00000070: 3b08 593e 7a9e 28bd ed0b 9ebe c8c3 e4bc
00000080: 6dd7 ebbc 5f34 46bd ad98 f9bd 0765 033e
00000090: ffca 603e 6fd7 653e 4151 35bd bc8e b13c
000000a0: 3dab 2abc ce4e 193d 89e3 8dbd 7cc3 7abc
000000b0: 8dff bf3d 04f2 bc3e 9f48 82be 41c9 97bd
000000c0: 33f8 d23d bd6d 0abe c98d 3d3d d1d8 db3b
000000d0: 2b2a 0dbe 7295 4cbe f0a9 0fbe ecd1 51be
000000e0: 6092 99bd 6e00 c03d 6e97 0ebe 3199 18bd
000000f0: 4064 b93d 11da 2b3e 6c44 2cbe 0ba1 3c3e
00000100: ab1f 843d e02a 8f3d c703 673e 7126 283e
00000110: bc25 cc3d 4587 26be 05bc cb3d 1465 5ebe
00000120: 0a18 8fbd 6c10 dcbd bd0e 6e3d ff2b 903d
00000130: cfc4 0abe dfb8 8cbd 04d6 87be 090a 553e
00000140: 5cb8 343e 3564 2dbe c33d 7cbe f2e6 7dbe
00000150: b2cc 453d 0ecd 38be 5a14 ecbd 87f2 30be
00000160: f653 8a3e 7567 babc a1a2 5d3c 0962 903d
00000170: 8436 96be f318 593d 628b 9d3c 8485 13be
00000180: c91a 593e 5dfa 823d 678e 92bd 1697 5d3d
00000190: 95eb 483e f045 fd3d cbb1 7fbe 6e93 813d
000001a0: 7024 1dbd 1d6f 19be 5c3c c1bd da4d 4a3d
000001b0: 2893 8f3e 9eb7 1ebe dc94 523e e98d 64be
000001c0: d2fa 9d3d c491 37bc 0d20 083e fb3f 8dbe
000001d0: 9fc5 453e 278f ec3d 86b3 103e f113 cf3d
000001e0: 14b7 a23d 8670 b9be c09e ba3d 4206 dd3d
000001f0: 6397 d33d 335a 1ebd fc59 1c3e a601 00bd
00000200: ac43 0a3e 559c 9abe b810 ba3d ba65 7dbe
00000210: 5f82 a7bc 21c9 c7bd eb23 c3bd f21e 40be
00000220: af4e 2dbd 0e62 f1bd 08ae 29be c49c 4e3d
00000230: 82a6 013e 7465 203e ae02 103d 26f6 353b
00000240: f0d8 6bb7 3915 6dbd 23c4 0c3e ccca 82bd
00000250: eae0 3dbd 6b9a 2ebe da08 8abd 1364 d73d
00000260: 704d 02be f956 15be 5ae8 75bd 385c d93d
00000270: b604 9e3d 4ccb ab3d abc7 44bd e069 ffbc
00000280: a9ba aebc 4de3 083e fa57 66be 9f73 dabd
00000290: 40ff 28be b24a 9a3c 5132 ca3d 315f 063e
000002a0: 5a6c 6ebe 37a9 bf3d 7f85 e63d 3c9e 343e
000002b0: c0b3 003e 68bf 583d 5c7a d9bd cec1 bd3d
000002c0: 47cf c33d e9b9 d7be 1a8d cf3d 3d3e 1abe
000002d0: 2f17 333e 1e22 a8bd 4edc ed3c 4aa1 a3bd
000002e0: 0bc8 a2bd 6738 193e 7cbb e2be c99c c73e
000002f0: 2be9 bf3e 02b2 dcbc c761 963d 7724 d23d
00000300: f4cf fb3d 3abf 34be 1f0f 8bbe 9ecb 303d
00000310: c61e fabd 8037 90bd 775f 77be 9526 323e
00000320: 6c71 1fbe f979 0a3e 800f 813e e3f6 cbbc
00000330: 0fd2 ef3c 080d 9fbc 957c f8bb 7e6b 6ebd
00000340: 40d9 c5bd b382 373e 29a8 fabc 8ad5 c33d
00000350: 7fc4 513e 86d1 98bd e36f 833e 0dbb fc3c
00000360: 2a5f 7abd e3ba 26be 5772 08bd 568e 9f3d
00000370: 2852 93be 2808 ddbd 444b 9abe d361 103b
00000380: 4708 bcbd 33a2 70bc 6574 ebbe 27d4 a03e
00000390: 2eca 34be 37f4 37be f9a9 14be 8803 4a3e
000003a0: 1ea6 323d f958 3cbe cf46 d33d 2d17 d53c
000003b0: d67a 713d 89ae 97be a9b9 313e 23f3 c3bd
000003c0: da89 0ebd 9797 c8bc 196d 8e3d ebd9 b5be
000003d0: fd67 333e bf94 b33d 967f 16be dcdb 9fbd
000003e0: d699 8fbe 8820 80be fed0 3b3e f122 ac3d
000003f0: 64ce 80be 3269 d6bc f861 f1bd 5382 133e
-0.1356948 -0.14493448 0.11729522 0.21214151 -0.0012914105 0.020773074 0.0897104 -0.13295463
-0.22430265 0.14694892 -0.12878592 -0.20301263 -0.3036594 -0.12483776 -0.341515 -0.21140248
-0.28660458 -0.14223129 0.22502303 0.010483064 0.1138624 -0.19022086 0.003670511 -0.12705156
-0.09480178 0.0151739055 -0.08022702 -0.18391864 0.21194546 -0.04116676 -0.30868474 -0.027925387
-0.028789246 -0.04838979 -0.12187324 0.12831508 0.21952437 0.22445463 -0.044266943 0.021674506
-0.010416803 0.03742867 -0.069281645 -0.015305396 0.09374914 0.36903393 -0.2544603 -0.07411433
0.103012465 -0.13518424 0.046277795 0.006709196 -0.13785617 -0.19978884 -0.1402967 -0.20490235
-0.07498622 0.09375082 -0.13924953 -0.03725547 0.09052324 0.16782404 -0.16822976 0.18420808
0.06451353 0.069906 0.22560035 0.16420914 0.09968135 -0.16262539 0.09947971 -0.21718246
-0.06987007 -0.1074532 0.058119524 0.070396416 -0.13551639 -0.06871199 -0.26530468 0.2080461
0.17648453 -0.16932757 -0.24632935 -0.2479513 0.048290916 -0.18046972 -0.11527319 -0.17280017
0.27017182 -0.02275441 0.013527543 0.07049949 -0.29338467 0.05300231 0.019231502 -0.14406401
0.21201624 0.06395409 -0.07156067 0.054099165 0.19621117 0.12366855 -0.24970166 0.06326948
-0.038364828 -0.14983793 -0.09435341 0.04939065 0.2804196 -0.15499732 0.20564598 -0.2231976
0.07713856 -0.011204187 0.13293476 -0.27587876 0.19313668 0.11550742 0.14130983 0.101112254
0.07945076 -0.3621866 0.091123104 0.10792209 0.10331609 -0.03866024 0.15268701 -0.031251572
0.13502377 -0.30197397 0.0908522 -0.24745837 -0.020447908 -0.09755159 -0.09528335 -0.18761805
-0.042311367 -0.117862806 -0.16570294 0.050442472 0.12661174 0.15663701 0.035158806 0.0027765124
-1.4057601e-05 -0.057881568 0.13746695 -0.06386337 -0.046357073 -0.17051093 -0.067399696 0.105171345
-0.12724853 -0.14583959 -0.06003604 0.106132925 0.07715742 0.08388385 -0.04804198 -0.031178415
-0.02132924 0.13367958 -0.22494498 -0.10666584 -0.1650362 0.018834446 0.09872878 0.1312225
-0.2328352 0.09358447 0.11255931 0.17638487 0.12568569 0.052916914 -0.10619041 0.09265481
0.095610194 -0.42134026 0.10134335 -0.15062805 0.17489313 -0.08209632 0.029035714 -0.07989748
-0.079483114 0.14962922 -0.44283664 0.38986805 0.3748258 -0.02694035 0.07342868 0.10260861
0.12295523 -0.17651072 -0.27159974 0.043162934 -0.12212901 -0.07041836 -0.2415751 0.1739753
-0.15570611 0.13523091 0.25207138 -0.024897998 0.029274968 -0.019415393 -0.0075832107 -0.05820798
-0.09660578 0.17920952 -0.030597763 0.09562214 0.20485114 -0.074618384 0.256713 0.030850912
-0.06112591 -0.16282229 -0.033312168 0.0779082 -0.28773618 -0.10792571 -0.30135548 0.0022030964
-0.09181266 -0.014687109 -0.4598724 0.3141186 -0.1765525 -0.17964254 -0.14517964 0.1972791
0.043615453 -0.18393315 0.1031624 0.026012028 0.058955036 -0.29625347 0.1735598 -0.09567859
-0.034799434 -0.024486346 0.069544025 -0.3551782 0.17520137 0.087686054 -0.14697108 -0.07805607
-0.28047055 -0.2502482 0.18341443 0.08405102 -0.25157464 -0.026173208 -0.11786264 0.14405183

bias f4 [10]
00000000: f711 883b 9489 78bd 1ac7 71bd b8ed 0abe
00000010: bc12 a3bd c822 fc3b d8e9 9a3d d48b a93c
00000020: d819 18bd eef3 2fbd
0.004152532 -0.06067808 -0.05902777 -0.13567245 -0.07962558 0.007694576 0.075641334 0.020696558
-0.03713402 -0.04295724
