net/simplenet_9571.pth (torch, 285463 bytes, 6 tensors)

weight f4 [84, 784]
-0.009207305 0.0044800746 0.005675421 -0.005636148 -0.014803586 -0.017905546 -0.005906831 0.039783143
0.035032906 -0.0022498455 0.030656494 0.03487132 0.02401274 0.0225136 0.035029586 0.014925409
0.024700878 0.0037289278 0.039928105 -0.009621556 -0.017385008 -0.027828652 -0.011932626 -0.022383297
0.0051789093 0.00669679 -0.0132530015 -0.018704854 -0.027167626 0.035004545 -0.01835192 0.011583177
-0.020203562 0.034637306 0.0081939865 0.013233352 0.0381418 0.03438571 -0.010145807 0.034449816
-0.006931712 0.006200487 0.0020082477 0.003067804 0.0028357531 -0.0075414972 0.027860425 0.032655276
0.011248711 0.0123845795 0.017959965 0.0061294087 0.034557473 -0.029728577 0.0138849355 0.03740615
0.038502008 0.028670538 0.023171715 -0.020286577 0.02415779 0.025520595 0.038895432 -0.009746086
0.0012550321 -0.029712606 -0.010354224 0.0074530877 -0.025207235 -0.030682418 0.017634949 -0.019623294
-0.028680073 -0.016462699 0.012360357 -0.029920546 0.01383551 -0.020584384 0.030133124 -0.00037809002
-0.014071745 -0.015885333 0.029271016 -0.03034827 -0.008668569 0.014722213 0.039800204 0.038940057
0.019309856 0.032018222 0.013627557 0.034360558 0.025230024 0.026236631 -0.007604039 -0.020041017
0.01859544 0.02375706 3.435359e-05 -0.026152672 -0.018760784 -0.008735264 0.031428915 0.008492136
-0.0084204255 -0.010376114 0.015939577 0.032368664 0.0339213 0.011005875 0.035586428 -0.00950392
-0.018053554 0.0025415265 -0.025960045 0.011869883 -0.01250929 -0.028771065 -0.017278604 0.015209444
-0.010672243 -0.00713164 -0.00072124094 0.03808515 -0.0042232657 0.010779487 0.009301652 0.040375777
0.032543667 -0.020138368 -0.030263228 0.0026274764 -0.001818216 0.021368364 -0.01753646 0.013639225
-0.010573236 -0.027128829 0.03896941 -0.028634505 -0.011600289 0.022810988 0.018021967 -0.025659278
-0.0060418355 0.0059884544 -0.01504682 0.024146916 -0.04186228 -0.02884276 0.011040984 0.024879312
-0.03311955 0.009454031 -0.004246676 -0.021396669 0.038982682 0.0394534 0.025187952 -0.014334066
0.006732871 0.03813667 0.0056134164 -0.0054230173 -0.02266001 -0.025573958 -0.026959056 0.014409512
0.036990337 0.038349804 -0.021034736 -0.012153663 0.0017845612 -0.004302751 0.021177668 0.0050060903
0.0025359609 0.019599909 0.027998965 -0.014690431 0.017110681 0.024692144 0.016034063 -0.026223844
0.042574365 0.022396978 0.0011317107 0.03288065 -0.037390746 0.02822279 0.03027603 0.03249759
-0.015948182 0.0022885418 -0.0019177955 0.008109293 0.024480557 0.033185244 0.0015453652 0.021332918
0.0023490665 0.00045540344 -0.026552167 -0.008355064 -0.024668077 -0.026823811 0.0037245937 -0.02817927
-0.028551484 -0.00037218482 -0.0072164806 -0.004908016 0.010687572 0.005014795 -0.010788789 -0.0020002413
-0.0133283865 -0.0079832645 0.03059053 0.038759314 0.034762386 0.0070650647 0.031854603 -0.01260845
-0.014043326 -0.016880406 0.009855472 0.028211413 0.0079997685 -0.018462455 -0.008402636 0.015269244
0.022942722 -0.02438771 -0.0075201862 -0.013426144 0.0221467 0.03316506 -0.013118476 -0.036199026
0.027270785 -0.021894911 -0.008944723 0.0044552083 0.006931376 0.007363785 0.026954783 0.0032726815
-0.01891402 0.010477204 0.0017072079 -0.008293593 0.0021403774 0.013730087 0.025169306 0.028857078
00000000: 3cda 16bc 97cd 923b e2f8 b93b 70af b8bb
00000010: bd8a 72bc a7ae 92bc 178e c1bb a6f3 223d
00000020: aa7e 0f3d 2572 13bb 5423 fb3c 3bd5 0e3d
00000030: 5eb6 c43c 716e b83c 2f7b 0f3d b489 743c
00000040: 7f59 ca3c 0761 743b a78b 233d bba3 1dbc
00000050: 016b 8ebc eaf8 e3bc 1081 43bc 2d5d b7bc
00000060: d7b3 a93b bf70 db3b 1e23 59bc ec3a 99bc
00000070: a48e debc ed60 0f3d c456 96bc 5ec7 3d3c
00000080: f181 a5bc d9df 0d3d 1240 063c b4d0 583c
00000090: 933a 1c3d 08d8 0c3d 993a 26bc 401b 0d3d
000000a0: 6a23 e3bb 742d cb3b ce9c 033b 360d 493b
000000b0: 0bd8 393b aa1e f7bb 8c3b e43c 8ac1 053d
000000c0: 834c 383c b1e8 4a3c c720 933c 35d9 c83b
000000d0: 238c 0d3d 5889 f3bc a47d 633c 3137 193d
000000e0: 48b4 1d3d 7ade ea3c 9cd2 bd3c 0930 a6bc
000000f0: 8fe6 c53c 9110 d13c d150 1f3d 0cae 1fbc
00000100: e47f a43a da67 f3bc c3a4 29bc 0839 f43b
00000110: 677f cebc b259 fbbc 2b77 903c 08c1 a0bc
00000120: 79f2 eabc c8dc 86bc 1883 4a3c ef1b f5bc
00000130: 56ae 623c 95a0 a8bc bed9 f63c 623a c6b9
00000140: 2d8d 66bc f521 82bc c5c9 ef3c ef9c f8bc
00000150: 9d06 0ebc 7035 713c 8a05 233d 9c7f 1f3d
00000160: b42f 9e3c 8a25 033d 1e46 5f3c a8bd 0c3d
00000170: 32af ce3c 34ee d63c 4d2b f9bb 0f2d a4bc
00000180: 7755 983c 2a9e c23c e316 1038 213e d6bc
00000190: 37b0 99bc 5a1e 0fbc 9bbb 003d 9a22 0b3c
000001a0: d3f5 09bc 9400 2abc b793 823c 0195 043d
000001b0: 10f1 0a3d fc51 343c 13c3 113d 54b6 1bbc
000001c0: 0ce5 93bc bd8f 263b 29aa d4bc e679 423c
000001d0: c4f3 4cbc 4cb1 ebbc dc8b 8dbc 0831 793c
000001e0: a2da 2ebc 88b0 e9bb a911 3dba 2dff 1b3d
000001f0: 5263 8abb 729c 303c f565 183c 1261 253d
00000200: 824c 053d 38f9 a4bc 97ea f7bc bd31 2c3b
00000210: 3551 eeba b50c af3c 9fa8 8fbc 0e77 5f3c
00000220: 5e3b 2dbc 473d debc 639e 1f3d e992 eabc
00000230: 230f 3ebc 1cde ba3c cea2 933c 6833 d2bc
00000240: 97fa c5bb cc3a c43b f086 76bc c1cf c53c
00000250: c877 2bbd a747 ecbc 3ee5 343c b3cf cb3c
00000260: 5ea8 07bd 14e5 1a3c b327 8bbb 1148 afbc
00000270: 4eac 1f3d e399 213d f756 ce3c 6ed9 6abc
00000280: 6a9f dc3b 3235 1c3d c0f0 b73b 91b3 b1bb
00000290: 7ca1 b9bc 7a80 d1bc 3dd9 dcbc e015 6c3c
000002a0: 2e83 173d af14 1d3d 0a51 acbc 2820 47bc
000002b0: f0e7 e93a 17fe 8cbb ca7c ad3c 210a a43b
000002c0: 5d32 263b fd8f a03c 165e e53c 22b0 70bc
000002d0: b32b 8c3c 2e47 ca3c de59 833c 63d3 d6bc
000002e0: 7562 2e3d de79 b73c e955 943a dcad 063d
000002f0: 0a27 19bd 7b33 e73c 7005 f83c 311c 053d
00000300: c3a5 82bc 5cfb 153b 8a5e fbba d7dc 043c
00000310: 738b c83c 40ed 073d da8d ca3a 5fc2 ae3c
00000320: ccf2 193b 37c3 ee39 ee83 d9bc aee3 08bc
00000330: b514 cabc 9cbd dbbc 5018 743b 36d8 e6bc
00000340: cde4 e9bc cd21 c3b9 3a78 ecbb 6cd3 a0bb
00000350: ed1a 2f3c 2653 a43b 76c3 30bc 7b16 03bb
00000360: 4e5f 5abc 3dcc 02bc fe98 fa3c 16c2 1e3d
00000370: 0163 0e3d 0f82 e73b f979 023d ac93 4ebc
00000380: fa15 66bc c748 8abc d878 213c 9f1b e73c
00000390: 7611 033c 933e 97bc 36ab 09bc da2b 7a3c
000003a0: 60f2 bb3c bcc8 c7bc e56b f6bb 54f9 5bbc
000003b0: ff6c b53c 16d8 073d e0ee 56bc 6e45 14bd
000003c0: fb66 df3c f55c b3bc e38c 12bc fffc 913b
000003d0: 9920 e33b e84b f13b 47d0 dc3c 7c7a 563b
000003e0: 93f1 9abc 94a8 2b3c 64c4 df3a dae1 07bc
000003f0: 9345 0c3b 29f4 603c dc2f ce3c ae65 ec3c

bias f4 [84]
0.00070482993 -0.005942874 -0.0027758528 -0.022429863 -0.03210155 0.017128622 -0.035460778 0.003644293
-0.004358624 -0.035869956 0.012070064 0.005268006 0.0027384213 0.020681981 -0.017980384 0.0038752735
-0.02061262 0.002059871 -0.016361354 -0.03027935 -0.0010189576 0.017092813 0.011382216 -0.01648007
-0.042434383 0.024633033 0.02802786 -0.038744546 -0.0049990625 0.019535957 0.00959618 -0.008730888
-0.033903416 -0.030009529 0.021957995 0.0048255487 -0.0016046521 -0.0269359 -0.019287413 0.0022158648
0.0077832537 0.009153956 -0.011599569 0.005009782 -0.027940309 0.010081884 -0.025879953 -0.016558263
-0.036840573 -0.006776158 0.02315349 0.011917095 0.0015830568 -0.033760637 0.022371177 -0.03845252
-0.017035896 0.013562901 -0.0105063785 -0.031776533 0.007471886 -0.044439267 0.0014848616 -0.015340459
0.008380727 0.034565154 0.045112677 -0.034086347 -0.017592221 0.020652732 -0.029037984 0.0037235778
-0.017290633 0.030239189 -0.046534892 0.0006567254 0.029564671 -0.005307741 0.026955618 0.00591568
-0.033363104 -0.0011963672 0.010894664 0.04695127
00000000: 56c4 383a 71bc c2bb 15eb 35bb d5be b7bc
00000010: ea7c 03bd 5351 8c3c 523f 11bd 17d5 6e3b
00000020: cad2 8ebb 60ec 12bd 85c1 453c 3d9f ac3b
00000030: 1677 333b 426d a93c 994b 93bc 4df8 7d3b
00000040: ccdb a8bc e7fe 063b 3f08 86bc 660c f8bc
00000050: 8b8e 85ba 3a06 8c3c 797c 3a3c 3601 87bc
00000060: adcf 2dbd 37cb c93c af9a e53c 9ab2 1ebd
00000070: 2dcf a3bb df09 a03c 4c39 1d3c 000c 0fbc
00000080: 4fde 0abd 8bd6 f5bc 41e1 b33c a31f 9e3b
00000090: 3153 d2ba ada8 dcbc a300 9ebc 0b38 113b
000000a0: aa0a ff3b 79fa 153c 1e0c 3ebc 1929 a43b
000000b0: 13e3 e4bc 7d2e 253c 3202 d4bc 32a5 87bc
000000c0: 24e6 16bd 890a debb 63ac bd3c eb3f 433c
000000d0: 927e cf3a 9848 0abd c243 b73c 6480 1dbd
000000e0: dd8e 8bbc ee36 5e3c f222 2cbc 1c28 02bd
000000f0: b9d6 f43b f305 36bd b09f c23a 8c56 7bbc
00000100: 514f 093c 3194 0d3d 12c8 383d 209e 0bbd
00000110: 901d 90bc eb2f a93c 11e1 edbc 4507 743b
00000120: 16a5 8dbc 2db8 f73c 5f9b 3ebd 1828 2c3a
00000130: 9c31 f23c 8fec adbb 07d2 dc3c 52d8 c13b
00000140: c0a7 08bd 6ccf 9cba 887f 323c fa4f 403d

weight f4 [50, 84]
-0.054592967 0.12626679 0.10133354 -0.09214972 0.22201683 -0.019796338 -0.08898752 0.43540287
-0.070075594 -0.020042349 0.10883978 0.13564217 0.097119115 0.009477261 -0.11867808 -0.004932566
-0.20017698 -0.0022749228 -0.0029771551 -0.053087674 0.0738415 -0.07117501 -0.013184086 -0.028659526
0.02229695 -0.041046392 -0.04040166 -0.04898462 0.015965391 0.013044339 -0.05980794 0.0392434
-0.07516271 -0.038105454 0.004928345 -0.014404121 0.38243902 -0.10266628 -0.2829583 -0.10272234
-0.10283426 -0.095743 0.23179115 -0.026574662 0.07715652 0.22569644 0.019216578 0.103785016
-0.11944546 0.090568736 0.21833482 0.23506202 0.11223516 0.11678984 -0.048294283 0.03636019
-0.03932513 0.008136738 0.07203346 -0.032572538 0.2269527 -0.11061571 0.09292877 0.17997088
0.049639184 -0.1272317 -0.05056562 0.11820213 0.025868494 -0.15555821 -0.09301776 -0.065308645
-0.0019289944 0.020730864 0.0049969056 -0.009860444 0.066000186 -0.08817227 -0.080575444 0.07860424
0.28221828 0.20535842 0.096000865 0.08037021 0.0043859896 0.099062845 0.1030503 -0.026817093
0.12206852 -0.059021335 -0.015021501 0.0031079738 -0.035879526 -0.08891909 0.08334075 -0.0973214
-0.06623286 -0.018800316 -0.03848279 0.07099655 0.094968 0.09541966 -0.06382396 0.022878515
-0.0099555515 -0.0012850201 -0.011338942 0.090913825 0.20513949 -0.041881725 0.13537171 -0.07428165
0.11483752 0.16236763 -0.06462009 -0.007783359 0.020314192 0.068125404 -0.23861338 -0.05724583
-0.13810463 -0.117675565 -0.18912792 0.04750037 -0.11066417 -0.039733227 -0.022477802 -0.055994812
0.06665688 -0.012641373 0.09325002 0.03355056 0.04182707 0.014613763 0.037795722 0.12368479
-0.04743621 0.17309134 0.04833074 0.012500566 0.10429564 0.13467927 -0.052780304 -0.053165894
-0.2267957 -0.123588175 0.00871496 -0.04792149 0.021568399 -0.07079395 -0.182524 -0.081264675
-0.057071935 0.14473908 -0.025930423 0.20433772 -0.019769335 0.04931689 0.16417095 -0.07322069
0.06879593 -0.061911415 -0.11540167 0.03483514 0.067022935 0.25202182 0.089158855 0.11684309
-0.046285193 -0.1889601 -0.069245696 0.07832574 -0.23448248 0.020714251 -0.07509737 0.07648602
-0.073907435 0.020067392 -0.08186112 0.03344885 -0.030847901 0.0459807 -0.09568338 0.11051127
0.13616239 0.06723355 0.15640268 0.19593947 -0.06944288 0.1794179 0.09038982 0.020785306
0.30591226 -0.09340853 -0.21279863 -0.04251106 0.19998194 0.06865018 0.017806055 0.023932097
-0.06905713 -0.007932068 -0.12384752 0.07079019 -0.13481161 0.11840037 0.2086729 -0.059547395
0.058291193 -0.004475069 -0.031105706 0.035511576 0.054535177 0.04023497 -0.072664306 0.03659525
-0.13422513 0.020428158 -0.024858998 0.11497611 -0.039717384 0.1451912 -0.05128563 -0.009278048
0.106533535 0.09043794 0.040574018 0.060120378 0.14675029 0.1001689 -0.08016114 0.01732914
-0.016130423 -0.0932764 -0.25732216 0.078861386 0.08742178 -0.13641472 -0.09004333 -0.13911426
0.018832743 0.07639931 0.016464245 0.08195181 0.12222619 -0.061089057 -0.014856156 -0.014444123
0.06673563 -0.34663236 -0.012334034 -0.28108966 -0.058038294 0.09782125 0.10839514 -0.23247516
00000000: e09c 5fbd 154c 013e f687 cf3d feb8 bcbd
00000010: 6158 633e ee2b a2bc 173f b6bd 20ed de3e
00000020: cb83 8fbd da2f a4bc 64e7 de3d c8e5 0a3e
00000030: 63e6 c63d 8446 1b3c 7e0d f3bd 5da1 a1bb
00000040: 32fb 4cbe df16 15bb 601c 43bb 7672 59bd
00000050: 363a 973d 34c4 91bd 1102 58bc 62c7 eabc
00000060: 18a8 b63c 4320 28bd 367c 25bd 19a4 48bd
00000070: dac9 823c ecb7 553c 2cf9 74bd b0bd 203d
00000080: e8ee 99bd 7714 1cbd f47d a13b 43ff 6bbc
00000090: 0ccf c33e b342 d2bd e9df 90be 1760 d2bd
000000a0: c59a d2bd e814 c4bd a95a 6d3e 1bb3 d9bc
000000b0: 3d04 9e3d f81c 673e 166c 9d3c 3d8d d43d
000000c0: d29f f4bd 1a7c b93d 2a93 5f3e 19b4 703e
000000d0: 8cdb e53d 832f ef3d 3ad0 45bd 6cee 143d
000000e0: 6313 21bd f44f 053c 4786 933d c86a 05bd
000000f0: 4a66 683e 7d8a e2bd 7051 be3d 494a 383e
00000100: 7552 4b3d 0749 02be e51d 4fbd f513 f23d
00000110: 2aea d33c a74a 1fbe 1880 bebd 8ac0 85bd
00000120: 50d6 fcba c6d3 a93c 15bd a33b b38d 21bc
00000130: 1b2b 873d aa93 b4bd bd04 a5bd 43fb a03d
00000140: ea7e 903e 7a49 523e 1a9c c43d 2399 a43d
00000150: 59b8 8f3b 76e1 ca3d 090c d33d 85af dbbc
00000160: 0fff f93d 5bc0 71bd be1c 76bc 26af 4b3b
00000170: 69f6 12bd 361b b6bd 8eae aa3d 7150 c7bd
00000180: 18a5 87bd 1f03 9abc 21a0 1dbd a466 913d
00000190: 957e c23d 626b c33d 23b6 82bd b96b bb3c
000001a0: 9c1c 23bc 1f6e a8ba f8c6 39bc 0731 ba3d
000001b0: 1610 523e 2c8c 2bbd e29e 0a3e fa20 98bd
000001c0: ef2f eb3d b343 263e 8a57 84bd 8c0b ffbb
000001d0: f369 a63c 5585 8b3d 1157 74be 9a7a 6abd
000001e0: 4d6b 0dbe e3ff f0bd c0aa 41be bf8f 423d
000001f0: e5a3 e2bd 4fbf 22bd 5e23 b8bc d15a 65bd
00000200: 6783 883d c31d 4fbc def9 be3d 506c 093d
00000210: dd52 2b3d 916e 6f3c b0cf 1a3d 744e fd3d
00000220: 794c 42bd db3e 313e 74f6 453d 2dcf 4c3c
00000230: f498 d53d 5de9 093e 2930 58bd 7bc4 59bd
00000240: 223d 68be cc1b fdbd 31c9 0e3c 5349 44bd
00000250: 36b0 b03c 6bfc 90bd 92e7 3abe 186e a6bd
00000260: 43c4 69bd 7b36 143e 0a6c d4bc e83d 513e
00000270: 4df3 a1bc 8200 4a3d 6e1c 283e bbf4 95bd
00000280: e1e4 8c3d d396 7dbd b657 ecbd 4baf 0e3d
00000290: 5243 893d 0109 813e eb98 b63d 6e4b ef3d
000002a0: 8b95 3dbd c27e 41be b0d0 8dbd 3f69 a03d
000002b0: 2d1c 70be efb0 a93c a6cc 99bd b4a4 9c3d
000002c0: c85c 97bd 5f64 a43c cea6 a7bd a901 093d
000002d0: bdb4 fcbc 4256 3c3d a6f5 c3bd bc53 e23d
000002e0: 276e 0b3e beb1 893d 0628 203e 5ba4 483e
000002f0: 1238 8ebd 53b9 373e 4c1e b93d f245 aa3c
00000300: 88a0 9c3e f94c bfbd e2e7 59be 1420 2ebd
00000310: 11c8 4c3e 7798 8c3d 01de 913c 3f0d c43c
00000320: d36d 8dbd 81f5 01bc c5a3 fdbd 72fa 903d
00000330: 0e0c 0abe e57b f23d 59ae 553e f8e7 73bd
00000340: bfc2 6e3d 9aa3 92bb 65d1 febc 9674 113d
00000350: 4760 5f3d 6dcd 243d 06d1 94bd e7e4 153d
00000360: 5072 09be f458 a73c 19a5 cbbc 9878 eb3d
00000370: b2ae 22bd 00ad 143e e110 52bd f402 18bc
00000380: 412e da3d 8737 b93d f130 263d c940 763d
00000390: b545 163e 5a25 cd3d 862b a4bd d7f5 8d3c
000003a0: f323 84bc b207 bfbd bbbf 83be 1482 a13d
000003b0: 310a b33d 4db0 0bbe a368 b8bd f873 0ebe
000003c0: 2047 9a3c 3e77 9c3d 06e0 863c 5ad6 a73d
000003d0: ba51 fa3d 8538 7abd 3c67 73bc 0ba7 6cbc
000003e0: b1ac 883d cc79 b1be b014 4abc fcea 8fbe
000003f0: 90b9 6dbd 8256 c83d 45fe dd3d f80d 6ebe

bias f4 [50]
0.10708159 -0.03865471 0.023163617 0.029957727 0.031143075 0.06549435 -0.06724992 0.0077000875
-0.08284096 -0.06273381 0.12599072 0.027303439 -0.116541676 0.0014281371 -0.000708661 0.10227785
-0.032530762 0.1072067 0.010909773 -0.030496426 -0.116666384 0.019628856 -0.069979236 0.06433503
-0.07674716 0.03292132 0.16232024 -0.12650725 -0.027988156 -0.1026507 -0.007026118 0.05299905
-0.00993135 0.13973908 -0.048224423 0.0051245564 -0.05292058 -0.050097413 0.0017227347 -0.042346343
-0.023598606 -0.055248223 -0.057220038 -0.0354626 -0.036799155 -0.13160057 -0.020436283 0.03078297
0.12196562 -0.101827994
00000000: 984d db3d 6754 1ebd a0c1 bd3c e869 f53c
00000010: c31f ff3c e721 863d 53ba 89bd 0451 fc3b
00000020: 85a8 a9bd 957a 80bd b603 013e 76ab df3c
00000030: 67ad eebd 5430 bb3a 6fc5 39ba 0d77 d13d
00000040: fa3e 05bd 308f db3d e8be 323c a4d3 f9bc
00000050: c9ee eebd b2cc a03c 4651 8fbd 16c2 833d
00000060: 9d2d 9dbd 82d8 063d 4737 263e 1e8b 01be
00000070: 6b47 e5bc 883a d2bd 5a3b e6bb 8815 593d
00000080: 1ab7 22bc c317 0f3e f986 45bd e5eb a73b
00000090: 40c3 58bd f232 4dbd 62cd e13a 5c73 2dbd
000000a0: dd51 c1bc f64b 62bd 8f5f 6abd 3b41 11bd
000000b0: b6ba 16bd 4dc2 06be fe69 a7bc 912c fc3c
000000c0: 1cc9 f93d 328b d0bd

weight f4 [10, 50]
0.1257227 0.17061946 -0.15312676 0.07960169 -0.43582487 0.061337743 -0.1604311 0.059895817
0.03797915 -0.05675045 -0.04770352 -0.32431984 0.1402247 0.1844639 -0.1001435 -0.20003459
-0.21590509 -0.4025635 -0.27908644 -0.113361634 0.27094635 -0.2131832 -0.18774891 -0.18742499
-0.061131164 0.24519058 0.0329228 0.12979846 0.0539469 -0.03975132 0.19031 -0.07471494
0.024277696 0.13009974 0.008449856 0.04590962 -0.37232664 -0.04566592 -0.080713056 -0.10544538
0.015032752 0.039352857 -0.06529111 0.042623803 -0.15526734 -0.13903484 -0.030089937 -0.3853826
0.018938482 0.061792538 0.05204022 -0.33091924 0.19361408 -0.45310947 -0.07957897 -0.40509802
0.109688014 -0.09536464 -0.39264926 0.15089531 0.041596938 0.23840517 -0.021866526 -0.04320058
0.052914076 0.12734467 -0.2420699 -0.08828605 -0.0071391645 -0.07730657 0.058368888 0.094730176
-0.05117764 0.17264119 0.08000226 -0.21839873 0.12977418 0.049005713 -0.2473515 -0.085325755
-0.18511456 -0.03474341 -0.29827902 -0.035383876 -0.05217492 -0.01737922 -0.13461202 -0.13353209
0.063874595 0.12136569 0.1794158 0.04518301 -0.011702815 -0.318417 -0.087209746 0.36385465
-0.06729961 0.17260131 -0.19485036 -0.27632347 0.020136982 0.049671374 -0.29570135 -0.129991
-0.20123462 0.10752851 0.14145398 0.09687231 0.15575467 0.021629019 0.12945245 -0.0064404057
0.09370237 -0.29303637 -0.05254095 0.065660134 0.11370376 0.25715116 0.18183553 0.036567718
0.21377446 -0.17476685 -0.28429517 -0.34236336 -0.0597526 -0.03904416 -0.19411325 0.44925755
-0.10451283 -0.16737533 -0.19957206 0.109258235 -0.051491052 -0.037637018 0.098632984 0.13465162
-0.27702558 0.0022061316 0.19839126 -0.057783287 0.14852895 -0.09077776 0.082882024 -0.01034165
-0.043908216 -0.11687002 0.0017134012 0.10534056 -0.35269845 -0.14096771 0.0832527 -0.05446588
-0.35990435 -0.3325967 0.14760473 -0.15771167 -0.16963877 -0.05063904 -0.066154 -0.19628088
0.21751936 -0.22191563 0.041857336 -0.18905956 -0.0029773712 -0.002741496 -0.30637604 0.20056903
0.2183137 0.0102123385 0.029602904 0.090110205 0.21971737 -0.021832585 -0.12183003 0.12300992
-0.18078697 -0.31022662 -0.12156072 -0.05898158 0.046993952 0.078521185 -0.28632492 0.022093745
0.05289335 0.020761076 -0.14406425 -0.14050017 0.09371914 0.09948916 0.011216827 0.114908606
0.094468504 0.08263814 -0.032572124 -0.15461193 0.011986694 -0.019687364 0.18036021 0.32396963
-0.36941326 -0.04920394 -0.0684177 -0.047860097 0.21458493 0.17279673 -0.06342341 0.055867136
-0.38075173 -0.21403103 -0.22282498 -0.065203294 0.029880852 0.100041986 -0.06452217 0.09844773
-0.014641 0.120363586 -0.0022560754 0.0823685 -0.21936971 -0.04723401 0.21941635 -0.23425868
0.08571142 -0.3371175 0.18259758 -0.18261771 0.12309618 0.026150214 -0.13208072 -0.30341673
0.061160054 -0.17590031 -0.2956132 0.17566533 0.054084107 -0.031096905 -0.3660675 0.173855
0.103690885 0.017096074 -0.02782416 0.10232829 0.02781647 0.0817046 -0.13454959 0.1343558
0.15084845 -0.21913362 -0.19194989 0.062476214 0.037689272 -0.08735759 0.13738349 -0.15762377
00000000: 74bd 003e deb6 2e3e 43cd 1cbe 3606 a33d
00000010: 7024 dfbe 493d 7b3d 0d48 24be 5155 753d
00000020: 0690 1b3d 2973 68bd c464 43bd 400d a6be
00000030: 1097 0f3e 1be4 3c3e 0918 cdbd ded5 4cbe
00000040: 3916 5dbe ce1c cebe 6be4 8ebe 252a e8bd
00000050: 7bb9 8a3e b24c 5abe 4041 40be 56ec 3fbe
00000060: ac64 7abd 3d13 7b3e 0fda 063d e3e9 043e
00000070: 6df7 5c3d 48d2 22bd a0e0 423e 2504 99bd
00000080: 05e2 c63c de38 053e 4471 0a3c ba0b 3c3d
00000090: 99a1 bebe 300c 3bbd e34c a5bd bff3 d7bd
000000a0: ef4b 763c 7630 213d 58b7 85bd 4c96 2e3d
000000b0: 67fe 1ebe 265f 0ebe 2c7f f6bc de50 c5be
000000c0: e024 9b3c 2c1a 7d3d 2028 553d 3f6e a9be
000000d0: c542 463e f7fd e7be 4dfa a2bd 0269 cfbe
000000e0: 1ca4 e03d 894e c3bd 5309 c9be 4d84 1a3e
000000f0: 8d61 2a3d 7c20 743e 6e21 b3bc 17f3 30bd
00000100: 6ebc 583d a466 023e 2ce1 77be 51cf b4bd
00000110: a7ef e9bb e852 9ebd 3714 6f3d e501 c23d
00000120: a59f 51bd dac8 303e 3ad8 a33d eba3 5fbe
00000130: 86e3 043e 37ba 483d b649 7dbe 45bf aebd
00000140: ac8e 3dbe 1b4f 0ebd 07b8 98be afee 10bd
00000150: 5eb5 55bd de5e 8ebc bcd7 09be a3bc 08be
00000160: afd0 823d 938e f83d c7b8 373e d211 393d
00000170: 2abd 3fbc 8e07 a3be 069b b2bd 284b ba3e
00000180: 61d4 89bd 66be 303e da86 47be 457a 8dbe
00000190: 50f6 a43c 3674 4b3d 2b66 97be 5c1c 05be
000001a0: 7310 4ebe e837 dc3d 50d9 103e fd64 c63d
000001b0: 277e 1f3e 572f b13c 2f8f 043e 0a0a d3bb
000001c0: 07e7 bf3d dd08 96be 2e35 57bd d278 863d
000001d0: 84dd e83d 51a9 833e 1833 3a3e 08c8 153d
000001e0: b1e7 5a3e 15f6 32be 238f 91be 404a afbe
000001f0: 24bf 74bd c5ec 1fbd a0c5 46be 1605 e63e
00000200: d30a d6bd 7064 2bbe 9e5c 4cbe c8c2 df3d
00000210: 48e8 52bd 4629 1abd 1700 ca3d 1de2 093e
00000220: 4cd6 8dbe bf94 103b 1427 4b3e 2bae 6cbd
00000230: f917 183e b1e9 b9bd 0dbe a93d 0670 29bc
00000240: 1ad9 33bd 8d59 efbd 3494 e03a cbbc d73d
00000250: e494 b4be d759 10be 6480 aa3d 9d17 5fbd
00000260: 6245 b8be 1d4a aabe b225 173e 2b7f 21be
00000270: c9b5 2dbe e26a 4fbd c07b 87bd dbfd 48be
00000280: 65bd 5e3e da3d 63be 9972 2b3d d498 41be
00000290: 0020 43bb acaa 33bb 52dd 9cbe f861 4d3e
000002a0: a08d 5f3e a751 273c ca81 f23c b38b b83d
000002b0: 97fd 603e 40da b2bc 0682 f9bd a0ec fb3d
000002c0: 3820 39be 06d6 9ebe d4f4 f8bd ab96 71bd
000002d0: bb7c 403d b7cf a03d 2e99 92be f1fd b43c
000002e0: b3a6 583d 2213 aa3c 9485 13be 47df 0fbe
000002f0: d2ef bf3d f9c0 cb3d c8c6 373c 3455 eb3d
00000300: b478 c13d 2f3e a93d 596a 05bd 9752 1ebe
00000310: d763 443c 6547 a1bc 59b0 383e 59df a53e
00000320: bc23 bdbe 128a 49bd 941e 8cbd f308 44bd
00000330: 27bc 5b3e a0f1 303e 22e4 81bd f0d4 643d
00000340: e4f1 c2be f32a 5bbe 3b2c 64be 4e89 85bd
00000350: b0c8 f43c d0e2 cc3d 3324 84bd f79e c93d
00000360: cee0 6fbc 2f81 f63d aada 13bb d1b0 a83d
00000370: 74a2 60be 7378 41bd aeae 603e 82e1 6fbe
00000380: 7889 af3d aa9a acbe dcfa 3a3e 2300 3bbe
00000390: da19 fc3d f938 d63c 2b40 07be 7059 9bbe
000003a0: f782 7a3d 361f 34be 9d5a 97be 9de1 333e
000003b0: 4c87 5d3d f0be febc 336d bbbe 0c07 323e
000003c0: e35b d43d 110d 8c3c 7eef e3bc 7f91 d13d
000003d0: 5edf e33c be54 a73d 5ec7 09be 9194 093e
000003e0: 0478 1a3e 9064 60be 838e 44be 0fe7 7f3d
000003f0: 1160 1a3d 89e8 b2bd 42ae 0c3e 2068 21be

bias f4 [10]
-0.10286704 0.016925141 -0.0685797 -0.12933168 0.16483222 -0.06799742 -0.15040803 -0.08751297
0.23097673 0.16817318
00000000: f4ab d2bd 98a6 8a3c 8473 8cbd 866f 04be
00000010: c7c9 283e 3b42 8bbd 9004 1abe 003a b3bd
00000020: 2a85 6c3e 9735 2c3e
